…
an class="line">18</span><br><span class="line">19</span><br><span class="line">20</span><br><span class="line">21</span><br><span class="line">22</span><br><span class="line">23</span><br><span class="line">24</span><br><span class="line">25</span><br><span class="line">26</span><br><span class="line">27</span><br><span class="line">28</span><br><span class="line">29</span><br><span class="line">30</span><br><span class="line">31</span><br></pre></td><td class="code"><pre><span class="line">Seq2Seq(</span><br><span class="line">  (encoder): Encoder(</span><br><span class="line">    (embedding): Embedding(10, 25)</span><br><span class="line">Seq2Seq(</span><br><span class="line">  (encoder): Encoder(</span><br><span class="line">    (embedding): Embedding(10, 25)</span><br><span class="line">    (rnn): GRU(25, 51, bidirectional=True)</span><br><span class="line">    (fc): Linear(in_features=102, out_features=51, bias=True)</span><br><span class="line">  (encoder): Encoder(</span><br><span class="line">    (embedding): Embedding(10, 25)</span><br><span class="line">    (rnn): GRU(25, 51, bidirectional=True)</span><br><span class="line">    (fc): Linear(in_features=102, out_features=51, bias=True)</span><br><span class="line">    (dropout): Dropout(p=0.5, inplace=False)</span><br><span class="line">    (rnn): GRU(25, 51, bidirectional=True)</span><br><span class="line">    (fc): Linear(in_features=102, out_features=51, bias=True)</span><br><span class="line">    (dropout): Dropout(p=0.5, inplace=False)</span><br><span class="line">    (fc): Linear(in_features=102, out_features=51, bias=True)</span><br><span class="line">    (dropout): Dropout(p=0.5, inplace=False)</span><br><span class="line">    (dropout): Dropout(p=0.5, inplace=False)</span><br><span class="line">  )</span><br><span class="line">  (decoder): Decoder(</span><br><span class="line">    (attention): Attention(</span><br><span class="line">      (attn): Linear(in_features=153, out_features=51, bias=True)</span><br><span class="line">      (v): Linear(in_features=51, out_features=1, bias=False)</span><br><span class="line">    )</span><br><span class="line">    (embedding): Embedding(10, 25)</span><br><span class="line">    (rnn): GRU(127, 51)</span><br><span class="line">    (fc): Linear(in_features=178, out_features=10, bias=True)</span><br><span class="line">    (dropout): Dropout(p=0.5, inplace=False)</span><br><span class="line">  )</span><br><span class="line">)</span><br></pre></td></tr></table></figure><br>ä»£ç å‚è€ƒï¼š<a href="https://github.com/bentrevett/pytorch-seq2seq">https://github.com/bentrevett/pytorch-seq2seq</a></p>]]></content>
      
      
      
        <tags>
…
